best_shallow.pt (torch, 44857 bytes, 5 tensors)

conv1.weight f4 [20, 1, 1, 25]
-0.10695885 -0.20079 0.14705826 -0.06207971 0.08804259 -0.17334056 -0.12131984 0.077212244
-0.18341115 -0.25878277 -0.3162124 -0.0970799 -0.061256252 0.049255397 -0.11084754 -0.094045565
0.14871216 -0.039739434 -0.038561944 0.03876082 0.29104704 0.20527047 0.34270832 0.17673115
0.37138152 0.18416436 0.21063909 -0.002898692 0.1758927 0.20275985 0.19467115 -0.12924872
0.06623978 -0.026737088 0.14381377 -0.17204589 -0.08072277 -0.27437833 -0.07489467 -0.08917917
-0.09055917 0.0686483 -0.07325243 -0.107949175 0.118117005 0.18311244 0.09468139 0.051090695
-0.24735159 -0.33371538 -0.30404535 -0.27734268 -0.18847878 0.11019834 -0.14469835 0.12565584
-0.040595055 -0.095908225 0.27360457 0.08891778 0.2153955 0.10487154 -0.057894923 0.18038172
0.053337995 0.1073651 -0.25845164 -0.15797709 0.15365262 -0.16474488 -0.11778251 0.05872815
-0.1304626 0.2990354 0.202745 -0.047129713 0.051163323 -0.21837616 -0.12476066 -0.017353866
0.22740231 -0.13991305 -0.08539752 0.23302789 -0.118888155 0.25717184 0.01263863 0.052655265
0.10069073 0.0097168945 0.29225266 0.15022525 -0.14675108 -0.054187477 -0.20449877 0.04813557
-0.18003538 -0.2310289 -0.13720508 -0.031047883 0.39623153 0.2897322 -0.05793405 0.08244434
-0.11227156 -0.12792715 -0.27130234 -0.20084046 0.04641435 0.06115904 -0.23229985 0.10199825
-0.13655448 -0.14162852 0.06339895 0.13233757 0.082750976 0.07100409 -0.05026291 0.03786946
-0.15129897 0.16862524 -0.07440034 0.07749919 -0.0738741 0.38288274 0.32646862 0.38149172
0.26183057 -0.07077319 -0.09555869 0.18104824 -0.23638093 -0.2622896 -0.32447392 -0.2807042
-0.3241542 -0.2501818 -0.253844 -0.13679577 0.15625353 -0.014440138 -0.035847843 -0.027500745
-0.0956794 0.24219286 0.19708605 0.08871266 0.062200755 0.2050898 -7.638587e-05 0.29713824
0.3217579 0.14863744 -0.04848159 0.21629971 -0.08719413 0.15912433 -0.054611333 0.13376044
-0.17962593 -0.041469086 -0.12259611 0.07157983 0.032686118 -0.14354697 -0.0027583682 -0.024611736
-0.12951005 -0.21173105 -0.228324 -0.060420793 -0.1996375 -0.029276785 0.111987084 0.12378161
0.04737042 0.08241563 -0.2006154 -0.12259652 -0.12018131 -0.05296993 -0.08791233 0.23400347
0.29583898 0.35816285 0.17810029 0.17896353 -0.063355714 -0.052301608 0.10631021 0.02536448
-0.24979389 -0.12376393 0.05163591 -0.17616875 0.07675816 -0.20332679 -0.064444676 -0.30414
-0.29760206 -0.27617633 -0.25611672 -0.036876492 -0.08914283 0.21864077 -0.044133287 0.02255357
0.051391426 0.073187105 0.13316092 0.2306742 0.07161112 0.18106833 0.16011079 0.21537766
0.185587 0.16149883 0.002315866 -0.034750357 -0.097314574 -0.14295052 -0.017238684 -0.18225373
-0.28828943 0.053843826 -0.0018990133 0.10435523 0.09044001 -0.13815181 0.18335962 -0.093085654
0.102777265 -0.12033053 -0.22240503 -0.2529461 -0.21530822 -0.23576036 -0.043260545 -0.09237694
0.06081287 -0.12715225 0.22796932 0.13803655 0.11881637 0.2602128 0.073841564 -0.10353569
0.15732454 0.13969712 -0.15200484 0.026968325 -0.0070320093 0.29201782 0.301919 0.052232545
00000000: 3e0d dbbd e59b 4dbe 7196 163e 4b47 7ebd
00000010: ac4f b43d 3080 31be 8976 f8bd 7421 9e3d
00000020: 22d0 3bbe 2d7f 84be 97e6 a1be d4d1 c6bd
00000030: d6e7 7abd 07c0 493d 0904 e3bd f69a c0bd
00000040: 0048 183e d1c5 22bd 21f3 1dbd aac3 1e3d
00000050: 1e04 953e 6c32 523e 7777 af3e 03f9 343e
00000060: b825 be3e 9595 3c3e c6b1 573e fbf7 3dbb
00000070: 371d 343e 47a0 4f3e e057 473e c759 04be
00000080: b9a8 873d bd07 dbbc eb43 133e cc2c 30be
00000090: fb51 a5bd 517b 8cbe 6062 99bd 92a3 b6bd
000000a0: 1677 b9bd 7b97 8c3d 5f05 96bd 7514 ddbd
000000b0: 54e7 f13d d481 3b3e 51e8 c13d 7a44 513d
000000c0: bc49 7dbe bedc aabe d5ab 9bbe dcff 8dbe
000000d0: 9500 41be abaf e13d ce2b 14be edab 003e
000000e0: 0047 26bd 886b c4bd e615 8c3e 861a b63d
000000f0: a390 5c3e e4c6 d63d 3a23 6dbd fcb5 383e
00000100: f178 5a3d 3ce2 db3d c653 84be bfc4 21be
00000110: 1d57 1d3e e2b2 28be f537 f1bd ee8c 703d
00000120: fd97 05be 2b1b 993e 639c 4f3e 160b 41bd
00000130: a290 513d 009e 5fbe 8482 ffbd b229 8ebc
00000140: 27dc 683e 5e45 0fbe e5e4 aebd dd9e 6e3e
00000150: a27b f3bd 07ac 833e 4212 4f3c 0cad 573d
00000160: f136 ce3d 9c33 1f3c 24a2 953e a6d4 193e
00000170: ea45 16be b0f3 5dbd 2068 51be ce29 453d
00000180: 325b 38be d792 6cbe 7d7f 0cbe 2158 febc
00000190: dcde ca3e c757 943e 414c 6dbd 94d8 a83d
000001a0: a2ee e5bd 56ff 02be 24e8 8abe 1fa9 4dbe
000001b0: f91c 3e3d e781 7a3d 03e0 6dbe 75e4 d03d
000001c0: f0d4 0bbe 1107 11be 4fd7 813d 8083 073e
000001d0: 5879 a93d 986a 913d 7be0 4dbd 021d 1b3d
000001e0: 1eee 1abe 18ac 2c3e 355f 98bd e5b7 9e3d
000001f0: 4e4b 97bd 3509 c43e e526 a73e e252 c33e
00000200: a80e 863e 89f1 90bd 46b4 c3bd b664 393e
00000210: d80d 72be d34a 86be 7221 a6be 76b8 8fbe
00000220: 8af7 a5be d417 80be d7f7 81be 3114 0cbe
00000230: ed00 203e 5496 6cbc 30d5 12bd 3e49 e1bc
00000240: 90f3 c3bd 6801 783e edd0 493e fcae b53d
00000250: 38c6 7e3d 0f03 523e 5a31 a0b8 8122 983e
00000260: 74bd a43e 6a34 183e a294 46bd ac7d 5d3e
00000270: d692 b2bd 7df1 223e 22b0 5fbd 7ff8 083e
00000280: dcef 37be 7ddb 29bd ab13 fbbd 7298 923d
00000290: e1e1 053d fafd 12be bdc5 34bb 8d9e c9bc
000002a0: 489e 04be 06d0 58be c4cd 69be cb7b 77bd
000002b0: c66d 4cbe ded5 efbc 7c59 e53d 3681 fd3d
000002c0: 7c07 423d 87c9 a83d 206e 4dbe e213 fbbd
000002d0: 9e21 f6bd fff6 58bd 610b b4bd 9b9e 6f3e
000002e0: 3578 973e 1f61 b73e ec5f 363e 3742 373e
000002f0: a4c0 81bd 363a 56bd 2bb9 d93d 2cc9 cf3c
00000300: f8c9 7fbe f177 fdbd 2d80 533d 9565 34be
00000310: 6233 9d3d e634 50be 92fb 83bd 3db8 9bbe
00000320: 4c5f 98be fc66 8dbe bb21 83be ce0b 17bd
00000330: 8490 b6bd 5ee3 5f3e 1bc5 34bd 44c2 b83c
00000340: d17f 523d 1fe3 953d 565b 083e dc35 6c3e
00000350: daa8 923d fa69 393e 15f4 233e f68b 5c3e
00000360: 850a 3e3e f35f 253e c9c5 173b 6456 0ebd
00000370: dd4c c7bd 9f61 12be 2438 8dbc b9a0 3abe
00000380: ac9a 93be 588b 5c3d 50e8 f8ba 32b8 d53d
00000390: 9d38 b93d ab77 0dbe a0c2 3b3e b1a3 bebd
000003a0: e37c d23d da6f f6bd 25be 63be 2782 81be
000003b0: c279 5cbe 2a6b 71be f831 31bd 1f30 bdbd
000003c0: ea16 793d 3334 02be ca70 693e 7459 0d3e
000003d0: ff55 f33d 9d3a 853e 3f3a 973d 850a d4bd
000003e0: af19 213e c30c 0f3e 28a7 1bbe adec dc3c
000003f0: c56c e6bb 5c83 953e 2195 9a3e cbf1 553d

conv1.bias f4 [20]
0.028637882 -0.0062143262 0.078051805 -0.16855761 0.060451984 0.0088709295 -0.11013223 0.02891237
0.038689498 0.12801431 0.007034217 -0.17358983 -0.47261417 -0.03215736 -0.021718968 -0.041832108
0.034388456 -0.19411948 -0.05535524 0.029180778
00000000: fe99 ea3c 8ca1 cbbb a0d9 9f3d 5e9a 2cbe
00000010: 809c 773d 6057 113c 028d e1bd a2d9 ec3c
00000020: e178 1e3d 2f16 033e 4a7f e63b 88c1 31be
00000030: 7cfa f1be 70b7 03bd faeb b1bc 2558 2bbd
00000040: e9da 0c3d 42c7 46be 2dbc 62bd 870c ef3c

conv2.weight f4 [20, 20, 19, 1]
-0.088601656 -0.050347827 0.006859092 0.16384117 -0.17071757 0.119658954 -0.1106276 -0.023889888
-0.1272469 -0.045872156 0.18225564 -0.09183141 0.026861915 0.07189595 0.013419372 -0.113640174
-0.013215806 -0.15578903 0.08758218 -0.069030814 -0.07186988 0.20852678 -0.17579179 -0.20913555
-0.032217015 -0.0117212925 0.13254681 0.010859118 -0.004758778 0.07401214 0.09128264 -0.033457197
0.012973061 -0.090050526 0.038359493 -0.013233106 0.042057022 0.023898896 0.019739436 0.050609954
-0.09942352 0.09385525 0.016446292 -0.023993826 -0.035213325 0.0002007924 -0.071692824 -0.064866774
0.047600232 -0.036682464 0.018189069 -0.01714751 0.036259912 -0.036133647 -0.042248044 -0.012597554
-0.057734467 0.11084103 0.03853401 -0.02347479 -0.19228786 0.09678722 -0.065914504 0.024196368
-0.06885589 0.058898814 0.04306974 -0.004795932 -0.10107723 0.08461399 -0.006975793 -0.0728331
0.10691046 -0.021142947 -0.01449193 -0.122464634 -0.038623963 -0.14178821 0.048345793 0.015734578
-0.0712869 0.026940532 -0.12812358 -0.015199879 -0.04428511 -0.04202447 0.001120045 -0.043725885
0.08170493 -0.03906571 -0.10969496 -0.07514095 0.036268786 -0.04787969 0.04276782 -0.10279102
-0.33826697 0.10048186 -0.01591295 -0.13948458 0.095747866 -0.07322432 0.022473434 0.047738682
-0.06708704 0.06510814 0.038467553 0.007317819 0.048835006 -0.13463531 -0.040170584 0.039294112
-0.004130666 0.13143785 0.08881102 0.019157864 0.095453896 -0.15251127 -0.114407144 -0.15941642
0.12701388 0.103299156 0.084227495 -0.0819035 0.005315781 -0.011394361 0.028648565 0.15593982
-0.16427362 0.061553415 -0.020555455 0.02499759 0.07156874 0.086251855 0.018349668 0.03712365
-0.17012417 0.097326115 -0.14346741 0.010992339 -0.012932603 -0.01812508 -0.06305885 -0.19238682
-0.057287674 -0.07901413 -0.062346045 -0.021273738 0.15191367 -0.0066991127 -0.010478154 -0.11178777
0.048018515 0.07852242 -0.0889993 0.029530698 0.07161218 0.038786557 0.018718814 0.018180538
0.056486983 0.014507923 -0.06544941 -0.024695043 -0.06845422 0.026616905 0.0010470008 0.03230321
0.016202185 -0.053381126 -0.037166405 -0.18303846 -0.23283942 0.081274375 0.13005021 -0.09674832
0.12462126 -0.014855468 0.042714275 -0.0027458386 0.028167581 0.09207973 -0.035578348 -0.03267782
-0.034010254 0.11601934 -0.09121989 0.008212237 -0.08962448 0.1567783 -0.093093045 -0.17563677
0.03617687 -0.069563985 -0.07554832 0.03519317 -0.10441993 0.12366288 -0.008191304 0.024389075
0.07307085 0.027766895 0.0130645605 -0.10220833 0.028730711 0.02707824 0.08292061 0.052506045
0.026224338 -0.10482614 -0.06349582 -0.08509673 0.11734596 -0.11495688 0.08114442 -0.04648173
-0.06713288 0.027915072 -0.06271204 0.12096442 0.04087769 0.027340788 0.02019736 0.027368557
-0.053395174 0.006774726 -0.0728765 0.02636526 -0.045701593 0.055092886 -0.080836356 -0.037620194
-0.014608608 0.06549783 -0.07607129 -0.046986263 -0.011319146 0.0014391261 0.105902694 0.016571272
0.0632993 0.07952077 0.009400581 -0.048609752 -0.05251691 0.016296541 -0.06529551 -0.29181966
-0.37177894 0.06661524 0.09205658 -0.25766328 0.11280171 -0.10781521 -0.091922335 0.008183564
00000000: c974 b5bd 8639 4ebd 3cc2 e03b fbc5 273e
00000010: 96d0 2ebe c10f f53d b990 e2bd bab4 c3bc
00000020: 034d 02be 71e4 3bbd 39a1 3a3e 1b12 bcbd
00000030: 850d dc3c 2f3e 933d eddc 5b3c 2ebc e8bd
00000040: 1c87 58bc 2987 1fbe 495e b33d 0760 8dbd
00000050: 8430 93bd 0b88 553e c302 34be a127 56be
00000060: fdf5 03bd aa0a 40bc 5aba 073e 71ea 313c
00000070: 86ef 9bbb ad93 973d 65f2 ba3d 6a0a 09bd
00000080: f68c 543c 696c b8bd d81e 1d3d abcf 58bc
00000090: fc43 2c3d 9ec7 c33c 99b4 a13c 624c 4f3d
000000a0: 8f9e cbbd 2e37 c03d 60ba 863c b38e c4bc
000000b0: d93b 10bd cd8b 5239 b0d3 92bd dfd8 84bd
000000c0: 76f8 423d 5a40 16bd 3e01 953c ef78 8cbc
000000d0: 4685 143d e000 14bd 490c 2dbd f965 4ebc
000000e0: fa7a 6cbd 9f00 e33d d7d5 1d3d 344e c0bc
000000f0: 1ce7 44be 6138 c63d 2ffe 86bd 7637 c63c
00000100: 5104 8dbd e23f 713d e569 303d 3227 9dbb
00000110: 9401 cfbd 194a ad3d 3195 e4bb 8529 95bd
00000120: dff3 da3d f933 adbc 8f6f 6dbc bdce fabd
00000130: 2934 1ebd ee30 11be 3d06 463d cde5 803c
00000140: defe 91bd 64b2 dc3c d432 03be ea08 79bc
00000150: 4e64 35bd da21 2cbd 79ce 923a ea19 33bd
00000160: ea54 a73d 5e03 20bd c0a7 e0bd 80e3 99bd
00000170: 948e 143d 7e1d 44bd 4f2d 2f3d 1984 d2bd
00000180: 5431 adbe 6fc9 cd3d e05b 82bc 0cd5 0ebe
00000190: 7517 c43d a2f6 95bd 351a b83c a389 433d
000001a0: ee64 89bd 6b57 853d 2790 1d3d 51ca ef3b
000001b0: 3707 483d d7dd 09be e989 24bd ddf2 203d
000001c0: 8a5a 87bb a597 063e 8de2 b53d f4f0 9c3c
000001d0: 557d c33d ea2b 1cbe 4b4e eabd 0f3e 23be
000001e0: ed0f 023e 828e d33d 777f ac3d 06bd a7bd
000001f0: 0130 ae3b 6aaf 3abc 65b0 ea3c b0ae 1f3e
00000200: 5837 28be 6f1f 7c3d ea63 a8bc bfc7 cc3c
00000210: a292 923d d0a4 b03d 0b52 963c f80e 183d
00000220: 0835 2ebe ea52 c73d 1fe9 12be 3619 343c
00000230: 45e3 53bc 0c7b 94bc 0025 81bd 0d01 45be
00000240: 7ba6 6abd 29d2 a1bd 915e 7fbd 4346 aebc
00000250: 428f 1b3e 3b84 dbbb 90ac 2bbc fdf0 e4bd
00000260: 10af 443d 5dd0 a03d 4445 b6bd 5dea f13c
00000270: 68a9 923d a7de 1e3d 3358 993c 5aef 943c
00000280: e55e 673d a4b2 6d3c 570a 86bd 424d cabc
00000290: ba31 8cbd b20b da3c 843b 893a 5f50 043d
000002a0: 72ba 843c 2ba6 5abd cd3b 18bd 6f6e 3bbe
000002b0: 756d 6ebe 2e73 a63d e22b 053e fc23 c6bd
000002c0: 6e39 ff3d 5964 73bc 2af5 2e3d 87f3 33bb
000002d0: b3bf e63c 4c94 bc3d 9aba 11bd 2ed9 05bd
000002e0: 564e 0bbd 8c9b ed3d 7ed1 babd 9e8c 063c
000002f0: 0a8d b7bd 7e8a 203e 91a7 bebd 20da 33be
00000300: 332e 143d 9077 8ebd 14b9 9abd b726 103d
00000310: 1eda d5bd f742 fd3d d234 06bc 99cb c73c
00000320: 2ba6 953d 6677 e33c bd0c 563c 9a52 d1bd
00000330: ab5c eb3c 2fd3 dd3c 48d2 a93d 9410 573d
00000340: 6cd4 d63c 16af d6bd 190a 82bd 3247 aebd
00000350: 1453 f03d 836e ebbd 0c2f a63d a063 3ebd
00000360: f77c 89bd 26ae e43c 2c6f 80bd 32bc f73d
00000370: 5d6f 273d caf9 df3c ef74 a53c 0634 e03c
00000380: e6b4 5abd 85fe dd3b 4640 95bd f5fb d73c
00000390: 9831 3bbd 14a9 613d 888d a5bd a217 1abd
000003a0: f158 6fbc ba23 863d 44cb 9bbd ab74 40bd
000003b0: f073 39bc 0fa1 bc3a 83e3 d83d 7ac0 873c
000003c0: 10a3 813d c9db a23d e504 1a3c 051b 47bd
000003d0: f91b 57bd 5380 853c a7b9 85bd 6369 95be
000003e0: cf59 bebe 926d 883d 2988 bc3d 71ec 83be
000003f0: 9504 e73d 39ce dcbd c741 bcbd 5b14 063c

fc.weight f4 [2, 1240]
-0.3099847 -0.24158394 -0.2305045 -0.17420712 -0.18694614 -0.23649777 -0.19340345 -0.16792682
-0.15037718 -0.1277785 -0.05767732 -0.06485589 -0.07721711 -0.1717403 -0.15120661 -0.17586885
-0.19428192 -0.056314617 -0.138362 -0.2738122 -0.29293606 -0.18015115 -0.16005234 -0.13780667
-0.22226708 -0.11083364 -0.19152005 -0.14348635 -0.25517628 -0.15988766 -0.16066986 -0.13624454
-0.15912566 -0.10333998 -0.08018322 -0.13010646 -0.1437776 -0.110459514 -0.0452898 -0.081265815
-0.11512358 -0.11422695 -0.14878045 -0.2134617 -0.30238482 -0.2687383 -0.15093105 -0.085154645
-0.23851351 -0.20909172 -0.1036107 -0.10930898 -0.17433539 -0.10410867 -0.112516455 -0.11166761
-0.22853862 -0.12333315 -0.10866435 -0.09930484 -0.19047675 -0.22129932 0.12466022 0.0177424
-0.004755848 -0.0009446359 0.0013234994 -0.0408278 -0.05150987 0.013570137 0.052903607 0.12639675
0.14132474 0.18310171 0.16749755 0.016787611 -0.06762247 0.015104544 -0.060210317 -0.016488617
0.01045788 -0.020186938 0.008437451 0.099903055 0.026550269 0.13326573 0.14046174 0.08865052
0.026965393 0.019550903 0.01584134 0.13093463 0.10008624 0.14558525 0.20830508 0.23565792
0.2081145 0.15752974 -0.0138628315 -0.021052511 0.05880969 -0.025037518 -0.042708326 -0.008251025
-0.0072178096 -0.09964001 -0.1524917 -0.07910371 -0.017349502 -0.02564794 0.12158222 0.11492033
0.19346155 0.1820878 0.22411036 0.25609013 0.12440101 0.06537463 0.042044967 0.003963085
-0.0135432035 -0.087083146 0.0017853947 0.06609654 -0.02822788 -0.12434488 -0.046568453 -0.054864112
-0.058861684 -0.075608194 -0.09159088 -0.108137354 -0.092529744 -0.10311085 -0.106220245 -0.097156376
-0.12807971 -0.09174516 -0.081789576 -0.04579652 -0.06344028 -0.075343706 -0.07424945 -0.13962369
-0.1021399 -0.094374895 -0.07212076 -0.05564294 -0.07609993 -0.115260944 -0.095855854 -0.08589621
-0.059316304 -0.03670643 -0.09279433 -0.05563914 -0.09954083 -0.05764989 -0.08960935 -0.074932486
-0.061711904 -0.061964046 -0.08610587 -0.011757238 -0.048256826 -0.076582946 -0.059002556 -0.12469274
-0.02299212 -0.08482454 -0.10643643 -0.10139655 -0.065858416 -0.13792165 -0.112639144 -0.06747502
-0.06627532 -0.045783006 -0.098818354 -0.08747047 -0.048527338 -0.05281546 -0.13037744 -0.058591213
-0.11319111 -0.10172412 -0.13481909 -0.13592272 -0.10703849 -0.056260608 -0.05256124 -0.20812592
-0.17835888 -0.121301614 -0.20095088 -0.10708062 -0.11483716 -0.0436527 -0.0734019 -0.1437645
-0.09959026 -0.047744047 0.036551673 -0.024318885 -0.029441955 0.022520708 -0.21961819 -0.190007
-0.13716254 -0.06649058 -0.123043075 -0.07069394 -0.04679956 -0.071681485 -0.044995748 0.019482335
-0.0208863 -0.07869628 -0.059987657 -0.14024502 -0.05558707 -0.012409596 -0.122992545 -0.18611737
-0.11363137 -0.08883761 -0.23797143 -0.17929965 -0.008831898 -0.06299501 -0.16368745 -0.060005445
-0.027788144 -0.10068678 -0.13735408 -0.07785984 -0.1397251 -0.04737938 0.033171847 0.0016431804
-0.074892715 -0.098140106 -0.026451947 -0.10320045 -0.09169371 -0.09076104 -0.12851718 -0.22245762
-0.033472445 -0.24740258 -0.2491749 -0.27632403 -0.32611975 -0.22541872 -0.23965755 -0.24255599
00000000: 51b6 9ebe c861 77be 5f09 6cbe 5a63 32be
00000010: cf6e 3fbe 792c 72be 8e0b 46be 02f5 2bbe
00000020: 7afc 19be 5ed8 02be 0e3f 6cbd 2ad3 84bd
00000030: 0124 9ebd b0dc 2fbe e8d5 1abe f716 34be
00000040: d7f1 46be 28aa 66bd c5ae 0dbe 1d31 8cbe
00000050: b7fb 95be 8b79 38be c3e4 23be 311d 0dbe
00000060: fb99 63be bffc e2bd d51d 44be 16ee 12be
00000070: 77a6 82be 97b9 23be a486 24be b083 0bbe
00000080: d6f1 22be e9a3 d3bd 1a37 a4bd a13a 05be
00000090: 6f3a 13be 9938 e2bd cc81 39bd b16e a6bd
000000a0: e9c5 ebbd d2ef e9bd e759 18be b495 5abe
000000b0: 2fd2 9abe 1198 89be ab8d 1abe 8f65 aebd
000000c0: e33c 74be 241c 56be d931 d4bd 63dd dfbd
000000d0: fa84 32be ed36 d5bd 076f e6bd fdb1 e4bd
000000e0: 0706 6abe 1796 fcbd 6a8b debd 5660 cbbd
000000f0: 560c 43be 4a9c 62be dc4d ff3d 8258 913c
00000100: f2d6 9bbb 71a1 77ba 4579 ad3a 0d3b 27bd
00000110: 03fc 52bd 4855 5e3c 74b1 583d 266e 013e
00000120: 6fb7 103e 047f 3b3e 7a84 2b3e 2c86 893c
00000130: a67d 8abd 0d79 773c 189f 76bd 2313 87bc
00000140: 8757 2b3c 145f a5bc 3c3d 0a3c f999 cc3d
00000150: f37f d93c d076 083e 34d5 0f3e 678e b53d
00000160: 87e6 dc3c 3729 a03c b3c5 813c ba13 063e
00000170: 04fa cc3d 4d14 153e ed4d 553e 4f50 713e
00000180: f81b 553e 7a4f 213e ee20 63bc 5176 acbc
00000190: 6ee2 703d 7b1b cdbc edee 2ebd 4f2f 07bc
000001a0: 6083 ecbb 1010 ccbd c926 1cbe 2001 a2bd
000001b0: 8b20 8ebc a11b d2bc 1900 f93d 5a5b eb3d
000001c0: c91a 463e 3975 3a3e 307d 653e 3f1e 833e
000001d0: f5c5 fe3d 22e3 853d 5837 2c3d c4dc 813b
000001e0: 50e4 5dbc a658 b2bd e803 ea3a 9f5d 873d
000001f0: 283e e7bc 87a8 febd 90be 3ebd 31b9 60bd
00000200: f318 71bd 78d8 9abd 0094 bbbd 1e77 ddbd
00000210: 3c80 bdbd c82b d3bd 008a d9bd ecf9 c6bd
00000220: 5427 03be e3e4 bbbd 4b81 a7bd 2295 3bbd
00000230: faec 81bd cd4d 9abd 1810 98bd 83f9 0ebe
00000240: b92e d1bd a047 c1bd 0db4 93bd dae9 63bd
00000250: 48da 9bbd ee0d ecbd 1350 c4bd 5aea afbd
00000260: a7f5 72bd 7b59 16bd f40a bebd dee5 63bd
00000270: 10dc cbbd 4b22 6cbd 1b85 b7bd 3476 99bd
00000280: 9fc5 7cbd 03ce 7dbd 4658 b0bd 6ea1 40bc
00000290: f3a8 45bd 85d7 9cbd aaac 71bd e85e ffbd
000002a0: f859 bcbc 7db8 adbd 58fb d9bd ffa8 cfbd
000002b0: c7e0 86bd 553b 0dbe 5aaf e6bd 5830 8abd
000002c0: 5bbb 87bd f686 3bbd 4761 cabd b823 b3bd
000002d0: 9ac4 46bd 0655 58bd aa81 05be 57fd 6fbd
000002e0: bed0 e7bd bc54 d0bd 040e 0abe 532f 0bbe
000002f0: ff36 dbbd 8671 66bd 744a 57bd f61e 55be
00000300: b6a3 36be fb6c f8bd 11c6 4dbe 164d dbbd
00000310: bf2f ebbd 2ccd 32bd bc53 96bd 0037 13be
00000320: faf5 cbbd 438f 43bd 35b7 153d 6638 c7bc
00000330: 4130 f1bc 597d b83c 97e3 60be 3291 42be
00000340: 5674 0cbe 372c 88bd 02fe fbbd fcc7 90bd
00000350: e5b0 3fbd becd 92bd 764d 38bd 6b99 9f3c
00000360: bf19 abbc 842b a1bd 9eb5 75bd 649c 0fbe
00000370: 44af 63bd 9e51 4bbc 84e3 fbbd 8d95 3ebe
00000380: 90b7 e8bd 7ef0 b5bd c8ae 73be 549a 37be
00000390: aab3 10bc 8703 81bd af9d 27be 45c8 75bd
000003a0: f6a3 e3bc df34 cebd 8ca6 0cbe fb74 9fbd
000003b0: 1914 0fbe e110 42bd 34df 073d fc5f d73a
000003c0: 5a61 99bd aefd c8bd c1b1 d8bc c25a d3bd
000003d0: e9c9 bbbd ede0 b9bd 029a 03be eecb 63be
000003e0: 671a 09bd 1a57 7dbe b427 7fbe 587a 8dbe
000003f0: 2bf9 a6be 2ad4 66be ca68 75be 9960 78be

fc.bias f4 [2]
-0.02827574 0.060363088
00000000: 86a2 e7bc 493f 773d
